password_classifier.pth (torch, 22896 bytes, 4 tensors)

fc1.weight f4 [50, 100]
0	0x3da2c019	0.07946796
1	0xbadb3180	-0.0016723126
2	0xbd8a9a44	-0.06767705
3	0xbdb579c8	-0.088611186
4	0xbcd4a180	-0.025955915
5	0x3d9d83b3	0.07691135
6	0xbd8fd2cd	-0.07022629
7	0xbbfa6580	-0.0076414943
8	0x3d66b082	0.056320675
9	0xbca9bf8c	-0.02072122
10	0x3db10c1f	0.0864489
11	0xbab4a580	-0.0013782233
12	0xbd81b515	-0.06333367
13	0x3c0c82d8	0.008576117
14	0x3d1e69a2	0.038674958
15	0xbb88ddd0	-0.0041768327
16	0x3dcaa91d	0.09895537
17	0x3dc94ce5	0.098291196
18	0xbd55497d	-0.052072037
19	0x3d4711ee	0.048601083
20	0xbdcba86a	-0.09944232
21	0xbd81737d	-0.06320856
22	0xbd4600e7	-0.048340704
23	0x3d7bb53e	0.061452143
24	0xbd8fbbe0	-0.07018256
25	0xbd92700e	-0.07150279
26	0xbce44658	-0.027865574
27	0xbd8c7dae	-0.06859909
28	0xbc481640	-0.012212336
29	0x3d4dc9ca	0.05024127
30	0x3cf6dcdc	0.03013461
31	0xbd4b6ee0	-0.049666286
32	0xbd69bad0	-0.057062924
33	0x3d80ea9f	0.062947504
34	0x397a4400	0.0002386719
35	0xbda5a7ea	-0.08088668
36	0x3db9541d	0.090492465
37	0x3d4b7b0e	0.0496779
38	0x3d69cc52	0.05707962
39	0xba608c00	-0.00085657835
40	0xbd934a78	-0.07191938
41	0xbd01920c	-0.03163342
42	0xbd4ee483	-0.050510895
43	0xbd5e2c20	-0.0542413
44	0xbdcb9812	-0.099411145
45	0x3dbe546b	0.09293445
46	0xbda34080	-0.07971287
47	0xbd3570e7	-0.044297125
48	0x3cccfdc4	0.025023349
49	0x3c267130	0.010158822
50	0x3d98463d	0.07435272
51	0xbd79a2e7	-0.06094637
52	0x3d9268f5	0.07148925
53	0xbbaa7650	-0.005202092
54	0x3d99178f	0.074751966
55	0x3c02bf90	0.007980242
56	0x3d8c08df	0.068376295
57	0x3d9b4a93	0.07582583
58	0x3d1cc596	0.03827437
59	0x3d5d77f2	0.054069467
60	0xbdb7caa8	-0.089742005
61	0xbd670bb3	-0.05640764
62	0xbd1bc5b7	-0.038030352
63	0xbd5c089d	-0.05371915
64	0x3c9ff8ac	0.019527756
65	0xbcdeed60	-0.027212799
66	0xbd235ec0	-0.039885283
67	0x3d9c0395	0.07617871
68	0xbbc23cb0	-0.0059276447
69	0xbd6c1eb3	-0.057646465
70	0xbb8aae30	-0.0042321905
71	0x3da5ae79	0.08089919
72	0x3d902933	0.07039108
73	0xbdc35cd5	-0.09539191
74	0x3c380aa8	0.011233009
75	0xbdc9ff5f	-0.09863161
76	0xbd5d275d	-0.053992618
77	0xbd6dc10a	-0.058045425
78	0xbd12f38c	-0.035876796
79	0xbd945246	-0.07242255
80	0x3d491a52	0.049097367
81	0x3d05d222	0.0326711
82	0xbdb18f93	-0.08669963
83	0x3d0f103a	0.034927584
84	0xbc9e96b4	-0.01935897
85	0x3cd0cde4	0.025488801
86	0x3d843b33	0.06456604
87	0xbc8db2c8	-0.017297164
88	0xbd2e34d7	-0.04253086
89	0xbdc10420	-0.09424615
90	0xbcc3b4ac	-0.023889862
91	0xbbd0a180	-0.0063669086
92	0xbd9875a3	-0.074443124
93	0x3daf4c89	0.0855952
94	0xbdb973e8	-0.090553105
95	0x3dc56f67	0.09640389
96	0x3d44f85a	0.04808841
97	0xbd9eba8b	-0.07750424
98	0xbda11548	-0.07865387
99	0xbda4b7cb	-0.08042868
100	0xbc605328	-0.013691701
101	0x3d558b1a	0.05213461
102	0xbdbbb738	-0.091658056
103	0xbd0d5010	-0.03450018
104	0x3d8cdc05	0.06877903
105	0xbd4d8bdd	-0.050182212
106	0xbc9e8f6c	-0.019355498
107	0x3dbb5211	0.09146512
108	0x3da5fda1	0.081050165
109	0xbdb0f7a0	-0.08640981
110	0x3b320bc0	0.0027167648
111	0x3d85c5cb	0.06531867
112	0xbd15dcb6	-0.03658744
113	0xbd0392d4	-0.032122448
114	0x3db54e39	0.088528104
115	0x3d288572	0.04114289
116	0x3c92ed88	0.01793553
117	0x3c7fc668	0.015611269
118	0xbb685940	-0.0035453588
119	0x3d29052a	0.04126469
120	0xbd6a5c6a	-0.05721704
121	0x3d9e36fd	0.07725332
122	0xbd717023	-0.058944833
123	0x3d8272d3	0.06369557
124	0xbdb7fd18	-0.08983821
125	0x3d916cc9	0.07100827
126	0x3da62e0d	0.08114252
127	0xbd9c3b82	-0.07628538
128	0x3d8e2587	0.069407515
129	0xbd56831d	-0.052371133
130	0x3cf8bd34	0.030363657
131	0x3c86be34	0.016448118
132	0x3d530a46	0.05152347
133	0xbdc424c0	-0.09577322
134	0xbd81c22c	-0.063358635
135	0xbd999203	-0.07498553
136	0xbdb7b7c7	-0.089705996
137	0x3ce11c94	0.027479447
138	0x3ca27968	0.019833282
139	0x3d018f92	0.03163106
140	0xbdb6f18d	-0.08932791
141	0x3dc398c9	0.09550626
142	0xbd6a5120	-0.057206273
143	0x3dc4764f	0.09592878
144	0x3d870f29	0.065946884
145	0x3cf795e4	0.03022284
146	0x3d715c1e	0.05892574
147	0xbc84b9c8	-0.016201869
148	0xbd8a5f26	-0.067564294
149	0x3b9f4b20	0.0048612505
150	0xbdae8fef	-0.08523547
151	0xbd0d1470	-0.03444332
152	0x3cfe2bb4	0.031026699
153	0xbd123e8c	-0.03570418
154	0xbc2e14a8	-0.010625042
155	0x3d48601a	0.048919775
156	0xbbc64d60	-0.0060517043
157	0x3d149aa2	0.03628028
158	0xb9927000	-0.00027930737
159	0x3d7e9602	0.062154777
160	0x3cd7d184	0.026345022
161	0xbd467530	-0.048451602
162	0x3d9adf41	0.075621136
163	0x3d9e145d	0.07718728
164	0xbdc12c87	-0.09432321
165	0xbd9dbf93	-0.077025555
166	0xbdb27d92	-0.08715357
167	0xbda5c0b2	-0.08093394
168	0xbd4c19b3	-0.049829196
169	0xbd830b14	-0.06398597
170	0x3d13cc42	0.036083467
171	0xbc3609d0	-0.011110738
172	0xbd68b323	-0.056811463
173	0xbd09b470	-0.033619344
174	0x3d8af2f5	0.067846216
175	0xbc661a50	-0.014044359
176	0xbd24a84a	-0.040199555
177	0x3d829641	0.06376315
178	0xbd4a90d0	-0.04945451
179	0x3d7aba52	0.061212845
180	0xbdca4ce8	-0.0987795
181	0x3c0ca358	0.008583866
182	0xbd1f052d	-0.038823295
183	0x3d5b2212	0.05349929
184	0xbc04ea28	-0.008112468
185	0xbd1e578a	-0.038657703
186	0x3dc5ffc7	0.09667926
187	0xbd8a59a6	-0.0675538
188	0x3c2fc1b0	0.010727331
189	0xbdc723bd	-0.097236134
190	0xbd16967a	-0.0367646
191	0x3d4809d6	0.048837505
192	0xbd962216	-0.0733072
193	0xbda87eb3	-0.08227291
194	0x3ba51500	0.005037904
195	0x3da86249	0.082218714
196	0xbcc531c0	-0.024071574
197	0xbdc1a132	-0.09454574
198	0x3cd2aa64	0.025716014
199	0xbdb8fcbb	-0.090325795
200	0xbd200d60	-0.039075255
201	0x3db15ce1	0.08660293
202	0xbd93049d	-0.07178614
203	0x3dbd81bf	0.09253263
204	0x3dc8e547	0.09809356
205	0x3d9de8b7	0.077104025
206	0x3d813cdb	0.063104354
207	0x3da9cbaf	0.08290803
208	0x3da3645d	0.07978127
209	0x3b8d41b0	0.004310809
210	0xbda98098	-0.082764804
211	0x3c06a210	0.00821735
212	0x3dc07829	0.09397919
213	0x3cd1235c	0.025529556
214	0xbbb30b50	-0.005463995
215	0xbcaec860	-0.02133578
216	0xbd85de1c	-0.065365046
217	0x3d0f89f2	0.035043664
218	0xbd43f2cd	-0.047838975
219	0xbda9d7fa	-0.082931474
220	0x3d4dead2	0.05027277
221	0x3dc95209	0.098301
222	0x3ccce7c4	0.025012858
223	0x3d3b2482	0.045689113
224	0x3d2b1c06	0.041774772
225	0xbdc2420d	-0.094852544
226	0x3d3b75e2	0.04576672
227	0xbceae7e8	-0.028675035
228	0xbc5dc0a8	-0.013534702
229	0x3da75603	0.08170702
230	0xbdbf270d	-0.0933362
231	0x3dac3731	0.084089644
232	0x3dc2cd35	0.095117964
233	0x3d050c7e	0.032482617
234	0x3d8d5929	0.069017716
235	0xbd60535a	-0.05476699
236	0x3dcc1581	0.09965039
237	0xbd7a42f7	-0.06109902
238	0x3dbcd199	0.09219665
239	0x3d9ddd1b	0.07708188
240	0xbc97c834	-0.018528081
241	0xbda76626	-0.0817378
242	0xbdc3a1ff	-0.09552383
243	0xbd153f16	-0.036437117
244	0x3b62c040	0.0034599453
245	0x3d565ec2	0.05233646
246	0x3d56f452	0.052479096
247	0x3dbad9a5	0.09123544
248	0xbda4fce5	-0.08056048
249	0xbc4f9ed8	-0.012672149
250	0xbbbdc160	-0.0057908744
251	0xbb1ac0a0	-0.0023613349
252	0xbc3e95e8	-0.01163242
253	0xbd84f936	-0.06492846
254	0x3da37e9d	0.07983134
255	0xbcaa4c6c	-0.020788394

fc1.bias f4 [50]
0	0x3d79ed6e	0.061017446
1	0xbd577f87	-0.052611854
2	0x3db1a471	0.08673943
3	0x3c7b9640	0.015355647
4	0xbd834ab8	-0.06410736
5	0xbda910f6	-0.08255188
6	0x3da85057	0.082184486
7	0xbd95907a	-0.07302947
8	0xbd9a3482	-0.07529546
9	0xbd44cbdd	-0.04804598
10	0xbd330743	-0.043708097
11	0x3c95e8b8	0.018299446
12	0xbd3fce87	-0.04682782
13	0xbb02ae40	-0.0019940287
14	0xbcfdd920	-0.030987322
15	0x3c731098	0.014835499
16	0xbc75a940	-0.014993966
17	0xbd0f959c	-0.035054788
18	0x3c1f3998	0.009718321
19	0xbdc21997	-0.09477537
20	0x3cbf040c	0.02331736
21	0xbcc45a2c	-0.023968779
22	0xbdbda880	-0.092606544
23	0x3c24a330	0.010048673
24	0x3dc745e3	0.09730127
25	0xbd1370c6	-0.03599622
26	0xbdb6c22f	-0.08923756
27	0x3bb754a0	0.005594805
28	0x3dc2161b	0.094768725
29	0x3d6d1b76	0.057887517
30	0x3cb49fcc	0.022048853
31	0xbd8d70f0	-0.06906307
32	0x3db8e031	0.09027136
33	0xbd3218ca	-0.043480672
34	0xbbea6f30	-0.007154368
35	0x3c0ef410	0.008725181
36	0x3daec4d1	0.085336335
37	0x3c9f7894	0.019466676
38	0x3d94073d	0.07227943
39	0x3c8b816c	0.017029487
40	0xbd895478	-0.06705564
41	0x3d90a8c1	0.07063437
42	0x3d84974d	0.06474171
43	0x3d96cc37	0.0736317
44	0xbdc6364a	-0.096783236
45	0xbd84f775	-0.06492511
46	0x3d2d0ee2	0.04225052
47	0xbd7ec8a0	-0.06220305
48	0xbda4435d	-0.08020661
49	0xbdc76827	-0.09736662

fc2.weight f4 [3, 50]
0	0x3d8b09a4	0.06788948
1	0xba903e00	-0.0011004806
2	0xbda0a1ec	-0.07843384
3	0xbd0754a0	-0.03303969
4	0xbd5980c2	-0.05310131
5	0xbdaeb53e	-0.08530663
6	0x3da8b842	0.082382694
7	0xbdb9146f	-0.090371005
8	0x3d561dd4	0.05227454
9	0x3cd400b8	0.025879249
10	0x3cb6a970	0.022297591
11	0x3db081d4	0.08618513
12	0x3bda3ec0	0.0066603124
13	0x3dabc922	0.083879724
14	0xbd82bd15	-0.06383721
15	0xbdc2f9ae	-0.09520279
16	0x3da79a16	0.081836864
17	0x3d9acb72	0.07558335
18	0xbe05d2ac	-0.13068646
19	0xbe07649c	-0.13221973
20	0x3e08eb15	0.13370927
21	0xbd61db1a	-0.055140592
22	0xbce2ff3c	-0.027709596
23	0x3ccaa270	0.02473566
24	0xbd3a93c6	-0.045551084
25	0x3d3b9314	0.04579456
26	0x3d0a462c	0.033758327
27	0x3e057555	0.1303304
28	0x3cebc678	0.02878116
29	0x3d29a858	0.04142031
30	0x3de0847a	0.10962768
31	0xbde8075e	-0.1132953
32	0x3e043383	0.12910275
33	0x3807d000	3.2380223e-05
34	0xbcb1e468	-0.021715358
35	0x3d1eb498	0.038746446
36	0xbe0e09cf	-0.13870929
37	0xbbd2dba0	-0.0064348727
38	0x3d30c4cc	0.04315643
39	0xbdfd9de7	-0.12383633
40	0xbc4dbf70	-0.012557849
41	0x3db03e56	0.0860564
42	0xbd0da9c6	-0.034585737
43	0xbbd103e0	-0.0063786358
44	0x3d637d0c	0.055539176
45	0x3d8bc33e	0.06824349
46	0xbd5a7726	-0.053336285
47	0xbd34a7e2	-0.044105418
48	0x3d7a7cec	0.06115429
49	0x3d7984ac	0.06091754
50	0xbdcaf34f	-0.09909689
51	0x3d992c98	0.07479209
52	0x3cba1658	0.022715732
53	0x3ded3fba	0.115844205
54	0xbdc0125c	-0.09378502
55	0x3be6dae0	0.007045135
56	0xbdc59f1b	-0.096494876
57	0xbd5f6308	-0.054537803
58	0x3d758f54	0.05995114
59	0xbde4a739	-0.11164708
60	0xbbac5ee0	-0.0052603334
61	0x3dd503e6	0.10401134
62	0xbe0f8519	-0.14015616
63	0xbd66871e	-0.0562812
64	0x3dacdbfa	0.08440395
65	0x3a6b7200	0.0008981526
66	0xbdf1a788	-0.11799532
67	0xbd133edc	-0.03594862
68	0xbe034271	-0.12818314
69	0x3d2df924	0.042473927
70	0xbc895384	-0.016763456
71	0x3db2094e	0.08693181
72	0x3e07e6b3	0.13271599
73	0x3caafeb8	0.020873412
74	0x3ca03ad8	0.019559309
75	0x3d7091e4	0.058732882
76	0xbc84f970	-0.016232222
77	0xbc5d65f0	-0.013513073
78	0x3de40632	0.11133994
79	0x3db3f072	0.08786096
80	0x3e070725	0.13186319
81	0x3dd6c57a	0.104868844
82	0xbd7c17da	-0.061546184
83	0xbdc2ba45	-0.09508184
84	0x3dd8fce2	0.105951086
85	0xbd954a09	-0.07289512
86	0x3c944ad8	0.018102095
87	0x3d228d14	0.039685324
88	0x3d5208a8	0.051277786
89	0xbd1657f8	-0.036704987
90	0xbdcb3fab	-0.09924253
91	0xbd25b458	-0.040455192
92	0x3ccf25b8	0.02528654
93	0x3e0f57f3	0.13998394
94	0xbcc34a0c	-0.02383902
95	0xbc6449d0	-0.013933614
96	0xbdb5d0d8	-0.088777244
97	0x3def0c3a	0.11672254
98	0x3df221aa	0.11822827
99	0xbc1a40c0	-0.009414852
100	0x3cc2a060	0.023758113
101	0xbdfa9830	-0.12236059
102	0x3bf4f580	0.007475555
103	0xbd640348	-0.05566719
104	0x3da99454	0.082802445
105	0xbc7a1a50	-0.015265062
106	0xbd84c284	-0.064824134
107	0x3deceeea	0.11569007
108	0x3da2b0b0	0.07943857
109	0xbd401204	-0.04689218
110	0x3db6349c	0.08896753
111	0xbe0524d4	-0.1300233
112	0x3cc70fd8	0.024299547
113	0x3d9d9866	0.07695083
114	0xbcd357dc	-0.02579873
115	0x3d5c5df0	0.053800523
116	0xbdc59e0e	-0.09649287
117	0x3d7c9cf8	0.061673135
118	0x3db50280	0.088383675
119	0x3c165bd0	0.009177163
120	0x3d904d24	0.070459634
121	0xbd936027	-0.07196074
122	0xbd0d4364	-0.034488097
123	0x3dabdc24	0.08391598
124	0xbe044659	-0.1291746
125	0xbddf70de	-0.109101996
126	0x3e0e8195	0.13916619
127	0x3c8da990	0.017292768
128	0xbd561268	-0.052263647
129	0x3c9cfb88	0.019162908
130	0x3ddf3c1a	0.10900135
131	0x3de19e32	0.110165015
132	0x3dc35c3a	0.09539075
133	0x3d9654f6	0.07340424
134	0x3d520064	0.051269904
135	0xbdb9400c	-0.09045419
136	0xbcb75758	-0.022380516
137	0x3d78efe0	0.060775638
138	0x3cf9a780	0.030475378
139	0x3e0447b5	0.12917979
140	0xbdf3a458	-0.118965805
141	0x3dfcf66e	0.1235169
142	0x3dd575a4	0.10422829
143	0x3d1cc960	0.038277984
144	0x3c834af0	0.016026944
145	0x3de430e2	0.11142136
146	0x3de09276	0.10965435
147	0x3db620d2	0.08892979
148	0x3b895640	0.00419119
149	0xbdafc87e	-0.08583163

fc2.bias f4 [3]
0	0x3ca001e8	0.019532159
1	0xbe04eac5	-0.12980182
2	0xbde20a48	-0.11037117
